…
I1127 10:40:36.499410  4302 net.cpp:322] The NetState phase (0) differed from the phase (1) specified by a rule in layer mnist
I1127 10:40:36.499456  4302 net.cpp:322] The NetState phase (0) differed from the phase (1) specified by a rule in layer accuracy
I1127 10:40:36.499650  4302 net.cpp:49] Initializing net from parameters: 
name: "LeNet"
state {
  phase: TRAIN
}
layer {
  name: "mnist"
  type: "Data"
  top: "data"
  top: "label"
  include {
    phase: TRAIN
  }
  transform_param {
    scale: 0.00390625
  }
  data_param {
    source: "examples/mnist/mnist_train_lmdb"
    batch_size: 64
    backend: LMDB
  }
}
layer {
  name: "conv1"
  type: "Convolution"
  bottom: "data"
  top: "conv1"
  param {
    lr_mult: 1
  }
  param {
    lr_mult: 2
  }
  convolution_param {
    num_output: 20
    kernel_size: 5
    stride: 1
    weight_filler {
      type: "xavier"
    }
    bias_filler {
      type: "constant"
    }
  }
}
layer {
  name: "pool1"
  type: "Pooling"
  bottom: "conv1"
  top: "pool1"
  pooling_param {
    pool: MAX
    kernel_size: 2
    stride: 2
  }
}
layer {
  name: "conv2"
  type: "Convolution"
  bottom: "pool1"
  top: "conv2"
  param {
    lr_mult: 1
  }
  param {
    lr_mult: 2
  }
  convolution_param {
    num_output: 50
    kernel_size: 5
    stride: 1
    weight_filler {
      type: "xavier"
    }
    bias_filler {
      type: "constant"
    }
  }
}
layer {
  name: "pool2"
  type: "Pooling"
  bottom: "conv2"
  top: "pool2"
  pooling_param {
    pool: MAX
    kernel_size: 2
    stride: 2
  }
}
layer {
  name: "ip1"
  type: "InnerProduct"
  bottom: "pool2"
  top: "ip1"
  param {
    lr_mult: 1
  }
  param {
    lr_mult: 2
  }
  inner_product_param {
    num_output: 500
    weight_filler {
      type: "xavier"
    }
    bias_filler {
      type: "constant"
    }
  }
}
layer {
  name: "relu1"
  type: "ReLU"
  bottom: "ip1"
  top: "ip1"
}
layer {
  name: "ip2"
  type: "InnerProduct"
  bottom: "ip1"
  top: "ip2"
  param {
    lr_mult: 1
  }
  param {
    lr_mult: 2
  }
  inner_product_param {
    num_output: 10
    weight_filler {
      type: "xavier"
    }
    bias_filler {
      type: "constant"
    }
  }
}
layer {
  name: "loss"
  type: "SoftmaxWithLoss"
  bottom: "ip2"
  bottom: "label"
  top: "loss"
}
I1127 10:40:36.499805  4302 layer_factory.hpp:76] Creating layer mnist
I1127 10:40:36.542425  4302 net.cpp:106] Creating Layer mnist
I1127 10:40:36.542610  4302 net.cpp:411] mnist -> data
I1127 10:40:36.542728  4302 net.cpp:411] mnist -> label
I1127 10:40:36.544740  4305 db_lmdb.cpp:38] Opened lmdb examples/mnist/mnist_train_lmdb
I1127 10:40:36.585686  4302 data_layer.cpp:41] output data size: 64,1,28,28
I1127 10:40:36.594424  4302 net.cpp:150] Setting up mnist
I1127 10:40:36.594570  4302 net.cpp:157] Top shape: 64 1 28 28 (50176)
I1127 10:40:36.594588  4302 net.cpp:157] Top shape: 64 (64)
I1127 10:40:36.594600  4302 net.cpp:165] Memory required for data: 200960
I1127 10:40:36.594630  4302 layer_factory.hpp:76] Creating layer conv1
I1127 10:40:36.594689  4302 net.cpp:106] Creating Layer conv1
I1127 10:40:36.594709  4302 net.cpp:454] conv1 <- data
I1127 10:40:36.594737  4302 net.cpp:411] conv1 -> conv1
I1127 10:40:36.596272  4302 net.cpp:150] Setting up conv1
I1127 10:40:36.596350  4302 net.cpp:157] Top shape: 64 20 24 24 (737280)
I1127 10:40:36.596360  4302 net.cpp:165] Memory required for data: 3150080
I1127 10:40:36.596391  4302 layer_factory.hpp:76] Creating layer pool1
I1127 10:40:36.596415  4302 net.cpp:106] Creating Layer pool1
I1127 10:40:36.596424  4302 net.cpp:454] pool1 <- conv1
I1127 10:40:36.596453  4302 net.cpp:411] pool1 -> pool1
I1127 10:40:36.596536  4302 net.cpp:150] Setting up pool1
I1127 10:40:36.596552  4302 net.cpp:157] Top shape: 64 20 12 12 (184320)
I1127 10:40:36.596560  4302 net.cpp:165] Memory required for data: 3887360
I1127 10:40:36.596568  4302 layer_factory.hpp:76] Creating layer conv2
I1127 10:40:36.596593  4302 net.cpp:106] Creating Layer conv2
I1127 10:40:36.596601  4302 net.cpp:454] conv2 <- pool1
I1127 10:40:36.596613  4302 net.cpp:411] conv2 -> conv2
I1127 10:40:36.597538  4302 net.cpp:150] Setting up conv2
I1127 10:40:36.597620  4302 net.cpp:157] Top shape: 64 50 8 8 (204800)
I1127 10:40:36.597625  4302 net.cpp:165] Memory required for data: 4706560
I1127 10:40:36.597647  4302 layer_factory.hpp:76] Creating layer pool2
I1127 10:40:36.597676  4302 net.cpp:106] Creating Layer pool2
I1127 10:40:36.597682  4302 net.cpp:454] pool2 <- conv2
I1127 10:40:36.597695  4302 net.cpp:411] pool2 -> pool2
I1127 10:40:36.597748  4302 net.cpp:150] Setting up pool2
I1127 10:40:36.597756  4302 net.cpp:157] Top shape: 64 50 4 4 (51200)
I1127 10:40:36.597760  4302 net.cpp:165] Memory required for data: 4911360
I1127 10:40:36.597765  4302 layer_factory.hpp:76] Creating layer ip1
I1127 10:40:36.597781  4302 net.cpp:106] Creating Layer ip1
I1127 10:40:36.597786  4302 net.cpp:454] ip1 <- pool2
I1127 10:40:36.597793  4302 net.cpp:411] ip1 -> ip1
I1127 10:40:36.601305  4302 net.cpp:150] Setting up ip1
I1127 10:40:36.601388  4302 net.cpp:157] Top shape: 64 500 (32000)
I1127 10:40:36.601393  4302 net.cpp:165] Memory required for data: 5039360
I1127 10:40:36.601416  4302 layer_factory.hpp:76] Creating layer relu1
I1127 10:40:36.601438  4302 net.cpp:106] Creating Layer relu1
I1127 10:40:36.601447  4302 net.cpp:454] relu1 <- ip1
I1127 10:40:36.601457  4302 net.cpp:397] relu1 -> ip1 (in-place)
I1127 10:40:36.601481  4302 net.cpp:150] Setting up relu1
I1127 10:40:36.601488  4302 net.cpp:157] Top shape: 64 500 (32000)
I1127 10:40:36.601492  4302 net.cpp:165] Memory required for data: 5167360
I1127 10:40:36.601496  4302 layer_factory.hpp:76] Creating layer ip2
I1127 10:40:36.601510  4302 net.cpp:106] Creating Layer ip2
I1127 10:40:36.601513  4302 net.cpp:454] ip2 <- ip1
I1127 10:40:36.601522  4302 net.cpp:411] ip2 -> ip2
I1127 10:40:36.602371  4302 net.cpp:150] Setting up ip2
I1127 10:40:36.602450  4302 net.cpp:157] Top shape: 64 10 (640)
I1127 10:40:36.602457  4302 net.cpp:165] Memory required for data: 5169920
I1127 10:40:36.602473  4302 layer_factory.hpp:76] Creating layer loss
I1127 10:40:36.602500  4302 net.cpp:106] Creating Layer loss
I1127 10:40:36.602509  4302 net.cpp:454] loss <- ip2
I1127 10:40:36.602519  4302 net.cpp:454] loss <- label
I1127 10:40:36.602535  4302 net.cpp:411] loss -> loss
I1127 10:40:36.602571  4302 layer_factory.hpp:76] Creating layer loss
…
I1127 10:40:36.603165  4302 solver.cpp:180] Creating test net (#0) specified by net file: examples/mnist/lenet_train_test.prototxt
I1127 10:40:36.603231  4302 net.cpp:322] The NetState phase (1) differed from the phase (0) specified by a rule in layer mnist
I1127 10:40:36.603416  4302 net.cpp:49] Initializing net from parameters: 
name: "LeNet"
state {
  phase: TEST
}
layer {
  name: "mnist"
  type: "Data"
  top: "data"
  top: "label"
  include {
    phase: TEST
  }
  transform_param {
    scale: 0.00390625
  }
  data_param {
    source: "examples/mnist/mnist_test_lmdb"
    batch_size: 100
    backend: LMDB
  }
}
layer {
  name: "conv1"
  type: "Convolution"
  bottom: "data"
  top: "conv1"
  param {
    lr_mult: 1
  }
  param {
    lr_mult: 2
  }
  convolution_param {
    num_output: 20
    kernel_size: 5
    stride: 1
    weight_filler {
      type: "xavier"
    }
    bias_filler {
      type: "constant"
    }
  }
}
layer {
  name: "pool1"
  type: "Pooling"
  bottom: "conv1"
  top: "pool1"
  pooling_param {
    pool: MAX
    kernel_size: 2
    stride: 2
  }
}
layer {
  name: "conv2"
  type: "Convolution"
  bottom: "pool1"
  top: "conv2"
  param {
    lr_mult: 1
  }
  param {
    lr_mult: 2
  }
  convolution_param {
    num_output: 50
    kernel_size: 5
    stride: 1
    weight_filler {
      type: "xavier"
    }
    bias_filler {
      type: "constant"
    }
  }
}
layer {
  name: "pool2"
  type: "Pooling"
  bottom: "conv2"
  top: "pool2"
  pooling_param {
    pool: MAX
    kernel_size: 2
    stride: 2
  }
}
layer {
  name: "ip1"
  type: "InnerProduct"
  bottom: "pool2"
  top: "ip1"
  param {
    lr_mult: 1
  }
  param {
    lr_mult: 2
  }
  inner_product_param {
    num_output: 500
    weight_filler {
      type: "xavier"
    }
    bias_filler {
      type: "constant"
    }
  }
}
layer {
  name: "relu1"
  type: "ReLU"
  bottom: "ip1"
  top: "ip1"
}
layer {
  name: "ip2"
  type: "InnerProduct"
  bottom: "ip1"
  top: "ip2"
  param {
    lr_mult: 1
  }
  param {
    lr_mult: 2
  }
  inner_product_param {
    num_output: 10
    weight_filler {
      type: "xavier"
    }
    bias_filler {
      type: "constant"
    }
  }
}
layer {
  name: "accuracy"
  type: "Accuracy"
  bottom: "ip2"
  bottom: "label"
  top: "accuracy"
  include {
    phase: TEST
  }
}
layer {
  name: "loss"
  type: "SoftmaxWithLoss"
  bottom: "ip2"
  bottom: "label"
  top: "loss"
}
I1127 10:40:36.603528  4302 layer_factory.hpp:76] Creating layer mnist
I1127 10:40:36.603694  4302 net.cpp:106] Creating Layer mnist
I1127 10:40:36.603709  4302 net.cpp:411] mnist -> data
I1127 10:40:36.603734  4302 net.cpp:411] mnist -> label
I1127 10:40:36.605867  4307 db_lmdb.cpp:38] Opened lmdb examples/mnist/mnist_test_lmdb
I1127 10:40:36.606041  4302 data_layer.cpp:41] output data size: 100,1,28,28
I1127 10:40:36.612763  4302 net.cpp:150] Setting up mnist
I1127 10:40:36.612861  4302 net.cpp:157] Top shape: 100 1 28 28 (78400)
I1127 10:40:36.612869  4302 net.cpp:157] Top shape: 100 (100)
I1127 10:40:36.612874  4302 net.cpp:165] Memory required for data: 314000
I1127 10:40:36.612886  4302 layer_factory.hpp:76] Creating layer label_mnist_1_split
I1127 10:40:36.612918  4302 net.cpp:106] Creating Layer label_mnist_1_split
I1127 10:40:36.612927  4302 net.cpp:454] label_mnist_1_split <- label
I1127 10:40:36.612939  4302 net.cpp:411] label_mnist_1_split -> label_mnist_1_split_0
I1127 10:40:36.612959  4302 net.cpp:411] label_mnist_1_split -> label_mnist_1_split_1
I1127 10:40:36.613062  4302 net.cpp:150] Setting up label_mnist_1_split
I1127 10:40:36.613072  4302 net.cpp:157] Top shape: 100 (100)
I1127 10:40:36.613077  4302 net.cpp:157] Top shape: 100 (100)
I1127 10:40:36.613081  4302 net.cpp:165] Memory required for data: 314800
I1127 10:40:36.613086  4302 layer_factory.hpp:76] Creating layer conv1
I1127 10:40:36.613106  4302 net.cpp:106] Creating Layer conv1
I1127 10:40:36.613111  4302 net.cpp:454] conv1 <- data
I1127 10:40:36.613119  4302 net.cpp:411] conv1 -> conv1
I1127 10:40:36.613288  4302 net.cpp:150] Setting up conv1
I1127 10:40:36.613297  4302 net.cpp:157] Top shape: 100 20 24 24 (1152000)
I1127 10:40:36.613301  4302 net.cpp:165] Memory required for data: 4922800
I1127 10:40:36.613312  4302 layer_factory.hpp:76] Creating layer pool1
I1127 10:40:36.613322  4302 net.cpp:106] Creating Layer pool1
I1127 10:40:36.613342  4302 net.cpp:454] pool1 <- conv1
I1127 10:40:36.613368  4302 net.cpp:411] pool1 -> pool1
I1127 10:40:36.613399  4302 net.cpp:150] Setting up pool1
I1127 10:40:36.613405  4302 net.cpp:157] Top shape: 100 20 12 12 (288000)
I1127 10:40:36.613409  4302 net.cpp:165] Memory required for data: 6074800
I1127 10:40:36.613415  4302 layer_factory.hpp:76] Creating layer conv2
I1127 10:40:36.613423  4302 net.cpp:106] Creating Layer conv2
I1127 10:40:36.613428  4302 net.cpp:454] conv2 <- pool1
I1127 10:40:36.613440  4302 net.cpp:411] conv2 -> conv2
I1127 10:40:36.613726  4302 net.cpp:150] Setting up conv2
I1127 10:40:36.613739  4302 net.cpp:157] Top shape: 100 50 8 8 (320000)
I1127 10:40:36.613744  4302 net.cpp:165] Memory required for data: 7354800
I1127 10:40:36.613752  4302 layer_factory.hpp:76] Creating layer pool2
I1127 10:40:36.613760  4302 net.cpp:106] Creating Layer pool2
I1127 10:40:36.613765  4302 net.cpp:454] pool2 <- conv2
I1127 10:40:36.613771  4302 net.cpp:411] pool2 -> pool2
I1127 10:40:36.613800  4302 net.cpp:150] Setting up pool2
I1127 10:40:36.613808  4302 net.cpp:157] Top shape: 100 50 4 4 (80000)
I1127 10:40:36.613812  4302 net.cpp:165] Memory required for data: 7674800
I1127 10:40:36.613816  4302 layer_factory.hpp:76] Creating layer ip1
I1127 10:40:36.613826  4302 net.cpp:106] Creating Layer ip1
I1127 10:40:36.613831  4302 net.cpp:454] ip1 <- pool2
I1127 10:40:36.613836  4302 net.cpp:411] ip1 -> ip1
I1127 10:40:36.617030  4302 net.cpp:150] Setting up ip1
I1127 10:40:36.617072  4302 net.cpp:157] Top shape: 100 500 (50000)
I1127 10:40:36.617077  4302 net.cpp:165] Memory required for data: 7874800
I1127 10:40:36.617092  4302 layer_factory.hpp:76] Creating layer relu1
I1127 10:40:36.617110  4302 net.cpp:106] Creating Layer relu1
I1127 10:40:36.617118  4302 net.cpp:454] relu1 <- ip1
I1127 10:40:36.617128  4302 net.cpp:397] relu1 -> ip1 (in-place)
I1127 10:40:36.617144  4302 net.cpp:150] Setting up relu1
I1127 10:40:36.617151  4302 net.cpp:157] Top shape: 100 500 (50000)
I1127 10:40:36.617154  4302 net.cpp:165] Memory required for data: 8074800
I1127 10:40:36.617159  4302 layer_factory.hpp:76] Creating layer ip2
I1127 10:40:36.617177  4302 net.cpp:106] Creating Layer ip2
I1127 10:40:36.617183  4302 net.cpp:454] ip2 <- ip1
I1127 10:40:36.617193  4302 net.cpp:411] ip2 -> ip2
I1127 10:40:36.617346  4302 net.cpp:150] Setting up ip2
I1127 10:40:36.617359  4302 net.cpp:157] Top shape: 100 10 (1000)
I1127 10:40:36.617363  4302 net.cpp:165] Memory required for data: 8078800
I1127 10:40:36.617372  4302 layer_factory.hpp:76] Creating layer ip2_ip2_0_split
I1127 10:40:36.617384  4302 net.cpp:106] Creating Layer ip2_ip2_0_split
I1127 10:40:36.617390  4302 net.cpp:454] ip2_ip2_0_split <- ip2
I1127 10:40:36.617398  4302 net.cpp:411] ip2_ip2_0_split -> ip2_ip2_0_split_0
I1127 10:40:36.617408  4302 net.cpp:411] ip2_ip2_0_split -> ip2_ip2_0_split_1
I1127 10:40:36.617449  4302 net.cpp:150] Setting up ip2_ip2_0_split
I1127 10:40:36.617457  4302 net.cpp:157] Top shape: 100 10 (1000)
I1127 10:40:36.617463  4302 net.cpp:157] Top shape: 100 10 (1000)
I1127 10:40:36.617467  4302 net.cpp:165] Memory required for data: 8086800
I1127 10:40:36.617472  4302 layer_factory.hpp:76] Creating layer accuracy
I1127 10:40:36.617485  4302 net.cpp:106] Creating Layer accuracy
I1127 10:40:36.617490  4302 net.cpp:454] accuracy <- ip2_ip2_0_split_0
I1127 10:40:36.617496  4302 net.cpp:454] accuracy <- label_mnist_1_split_0
I1127 10:40:36.617501  4302 net.cpp:411] accuracy -> accuracy
…
